saved_models/garden_test-attn-prod-garden.pth (torch, 269369 bytes, 35 tensors)

n_feat_th f4 [2649, 2]
1.4088099 0.27633518 -0.7913624 1.0303981 1.1935928 -1.0765964 -2.0108109 -1.0421557
-0.15536648 0.99771893 2.4079885 -0.3282177 -0.42464042 1.2753403 0.8733028 -0.2100575
0.27843922 2.4359174 2.8733106 0.5475717 0.10487816 -1.1530991 0.4415131 0.32688922
3.1110325 0.30154547 -0.559281 0.19383788 1.7094551 0.40825734 1.057569 0.8929088
-0.32234776 0.188932 0.17121944 0.22668791 2.121864 -0.0103030205 -0.6341908 0.91453844
-0.49631333 1.4504879 0.79943526 -0.6092824 0.08552852 -0.42830867 1.4970902 -0.72930336
1.8360873 -0.4048841 -1.2251811 0.839308 -0.91328776 -0.081819355 0.9553039 -1.1257998
1.6485833 -0.12815815 0.12229565 -1.1756043 1.7627687 -0.596833 -0.44734222 0.44112167
0.030759066 2.5690506 0.6879456 -0.3954124 2.7765253 0.785459 -0.43944222 0.6939091
1.59005 3.0281215 0.41768777 1.7143896 -0.055308282 -0.27453083 1.5711179 0.43773675
0.2291018 -0.024342537 1.0120456 -0.4824201 -0.99231184 -0.103715 0.6029492 -0.38245678
1.9439597 0.34009197 1.9919102 2.2441897 0.9107257 -0.13060266 1.439906 -1.1373762
0.19195765 -0.23545021 0.0017095208 -1.0815138 -2.1357646 -0.42503703 -0.81069326 -1.3487879
0.6501907 0.045398623 -0.59587383 0.16156292 -1.128228 1.673706 0.9029199 -0.5277147
1.3737767 0.5803366 1.4587593 -0.048596263 0.33814296 1.2817854 2.5030758 1.3348556
-0.18301994 0.050137043 2.1119456 -0.61001766 0.38968286 0.33192754 -0.9424472 1.4568753
0.53865117 0.30980873 1.6663729 0.44934404 0.47461757 0.34196258 -0.101376 -0.18923187
-0.9149276 1.1064423 -0.552804 0.66467 -1.0704186 -0.12590468 0.4075178 -0.09008896
1.77956 0.56043094 0.80877274 0.47210836 -0.036159992 1.2012868 0.16047421 0.6191182
1.0567963 0.5596759 0.28388244 -0.44593912 1.8014534 2.462778 1.3555065 0.9149506
0.43044603 0.8331896 -0.9792056 -2.595069 0.4071746 1.2831633 -0.8121947 -0.40598077
-0.23987043 -0.24437004 2.5348916 -0.45229667 3.2887704 1.0469897 0.6463808 2.194572
0.40635422 1.8369175 0.3925791 0.20370549 0.24810079 1.0767186 1.4509643 -0.09424019
-0.66558456 -0.67955935 -0.36132038 0.35218132 -0.041383505 0.12750092 1.5939381 -0.3455041
-0.10636234 0.3646677 0.20478728 0.12288597 0.63314176 1.2124034 0.009734511 0.9284013
0.8361707 -0.15659225 1.8878502 2.001698 -0.527918 -0.07002711 1.0488448 1.4215722
-1.369968 1.0169501 -1.3749346 1.1034006 2.1027684 0.69728816 1.2589474 1.7858855
-1.2937877 0.7166746 1.1885667 0.51849055 0.17707217 2.6412072 -0.0055900216 1.3836443
0.5616206 -0.8142941 1.7303048 2.0063777 2.364541 0.7600812 0.7398932 1.3297989
1.1913121 -0.42267197 -0.5679089 0.8428967 -0.0461756 0.025635153 0.8183396 -0.6376326
0.8159156 0.272343 -0.8064643 1.8565454 1.1737719 0.12644994 1.4554539 2.243307
-0.32802624 1.8496171 1.2683463 0.9162421 -0.29383808 -0.02342558 -0.27338064 1.1596863
00000000: e253 b43f ce7b 8d3e ba96 4abf 16e4 833f
00000010: a6c7 983f e9cd 89bf 20b1 00c0 5c65 85bf
00000020: 6418 1fbe 826a 7f3f 7c1c 1a40 260c a8be
00000030: 786a d9be 5a3e a33f c690 5f3f 5019 57be
00000040: 968f 8e3e 12e6 1b40 52e4 3740 a92d 0c3f
00000050: 5cca d63d c098 93bf 010e e23e 065e a73e
00000060: 281b 4740 2b64 9a3e 0a2d 0fbf 707d 463e
00000070: 6dcf da3f 1b07 d13e 6c5e 873f ac95 643f
00000080: c40a a5be 6477 413e 2654 2f3e e020 683e
00000090: 9fcc 0740 00ce 28bc 545a 22bf 311f 6a3f
000000a0: c81c febe 96a9 b93f caa7 4c3f eef9 1bbf
000000b0: 9429 af3d 464b dbbe a7a0 bf3f a0b3 3abf
000000c0: e904 eb3f f84c cfbe bcd2 9cbf e4dc 563f
000000d0: 3acd 69bf e890 a7bd cc8e 743f 351a 90bf
000000e0: c704 d33f e43b 03be 2476 fa3d 347a 96bf
000000f0: 68a2 e13f 0cca 18bf 0a0a e5be b3da e13e
00000100: 70fa fb3c 536b 2440 341d 303f 7e73 cabe
00000110: 97b2 3140 d713 493f 92fe e0be 07a4 313f
00000120: c286 cb3f becc 4140 2cdb d53e 1e71 db3f
00000130: f08a 62bd 4e8f 8cbe 641a c93f 081f e03e
00000140: aa99 6a3e 006a c7bc b68a 813f c4ff f6be
00000150: 2608 7ebf 8868 d4bd e15a 1a3f 60d1 c3be
00000160: acd3 f83f 8920 ae3e eaf6 fe3f cea0 0f40
00000170: 5225 693f b4bc 05be d74e b83f 8b95 91bf
00000180: 8c90 443e dc19 71be 0012 e03a 0b6f 8abf
00000190: 5eb0 08c0 749e d9be 9889 4fbf 15a5 acbf
000001a0: e672 263f e8f3 393d 308b 18bf c070 253e
000001b0: c669 90bf 003c d63f c225 673f 5018 07bf
000001c0: ead7 af3f f090 143f a0b8 ba3f e00c 47bd
000001d0: 1321 ad3e 8b11 a43f 6532 2040 8cdc aa3f
000001e0: 9469 3bbe 805c 4d3d 1e2a 0740 1e2a 1cbf
000001f0: 8384 c73e 68f2 a93e 3844 71bf e47a ba3f
00000200: 0be5 093f 409f 9e3e b54b d53f 6c10 e63e
00000210: 1301 f33e b815 af3e 389e cfbd 00c6 41be
00000220: b238 6abf e79f 8d3f 9084 0dbf d027 2a3f
00000230: 7a03 89bf 28ed 00be 2ca6 d03e 9080 b8bd
00000240: 9fc8 e33f 6778 0f3f bb0b 4f3f 30b8 f13e
00000250: 801c 14bd c4c3 993f 5a53 243e 887e 1e3f
00000260: 1a45 873f eb46 0f3f 0a59 913e 2252 e4be
00000270: 0696 e63f 289e 1d40 3d81 ad3f 343a 6a3f
00000280: 6c63 dc3e ea4b 553f 38ad 7abf 9c15 26c0
00000290: 3079 d03e b23e a43f feeb 4fbf b6dc cfbe
000002a0: 98a0 75be 243c 7abe aa3b 2240 6e93 e7be
000002b0: 377b 5240 c203 863f 3679 253f de73 0c40
000002c0: a90d d03e 1d20 eb3f 2100 c93e 2c98 503e
000002d0: 220e 7e3e ead1 893f 33b9 b93f 0001 c1bd
000002e0: c063 2abf 9af7 2dbf fcfe b8be 1c51 b43e
000002f0: c081 29bd 9a8f 023e 2a06 cc3f eae5 b0be
00000300: 80d4 d9bd bab5 ba3e c2b3 513e a4ab fb3d
00000310: 9415 223f 0930 9b3f 807d 1f3c b5ab 6d3f
00000320: 480f 563f b859 20be 13a5 f13f d21b 0040
00000330: a225 07bf 606a 8fbd 8c40 863f 14f6 b53f
00000340: 1d5b afbf 6c2b 823f dbfd afbf 3b3c 8d3f
00000350: c293 0640 7a81 323f 3025 a13f e597 e43f
00000360: d69a a5bf fd77 373f f422 983f ccbb 043f
00000370: 6852 353e 8a09 2940 802c b7bb 421b b13f
00000380: 5ec6 0f3f 9475 50bf a17a dd3f 7e68 0040
00000390: a454 1740 ae94 423f a469 3d3f da36 aa3f
000003a0: ea7c 983f 7668 d8be 7a62 11bf 14c8 573f
000003b0: a022 3dbd d000 d23c b47e 513f e43b 23bf
000003c0: d8df 503f 8b70 8b3e 7274 4ebf 48a3 ed3f
000003d0: 283e 963f 187c 013e 504c ba3f 5892 0f40
000003e0: 0ef3 a7be 41c0 ec3f 2c59 a23f d88e 6a3f
000003f0: f271 96be 00e7 bfbc 8cf8 8bbe 9a70 943f

e_feat_th f4 [13273, 2]
0.0 0.0 0.0 0.0 0.0 0.0 0.0 0.0
0.0 0.0 0.0 0.0 0.0 0.0 0.0 0.0
0.0 0.0 0.0 0.0 0.0 0.0 0.0 0.0
0.0 0.0 0.0 0.0 0.0 0.0 0.0 0.0
0.0 0.0 0.0 0.0 0.0 0.0 0.0 0.0
0.0 0.0 0.0 0.0 0.0 0.0 0.0 0.0
0.0 0.0 0.0 0.0 0.0 0.0 0.0 0.0
0.0 0.0 0.0 0.0 0.0 0.0 0.0 0.0
0.0 0.0 0.0 0.0 0.0 0.0 0.0 0.0
0.0 0.0 0.0 0.0 0.0 0.0 0.0 0.0
0.0 0.0 0.0 0.0 0.0 0.0 0.0 0.0
0.0 0.0 0.0 0.0 0.0 0.0 0.0 0.0
0.0 0.0 0.0 0.0 0.0 0.0 0.0 0.0
0.0 0.0 0.0 0.0 0.0 0.0 0.0 0.0
0.0 0.0 0.0 0.0 0.0 0.0 0.0 0.0
0.0 0.0 0.0 0.0 0.0 0.0 0.0 0.0
0.0 0.0 0.0 0.0 0.0 0.0 0.0 0.0
0.0 0.0 0.0 0.0 0.0 0.0 0.0 0.0
0.0 0.0 0.0 0.0 0.0 0.0 0.0 0.0
0.0 0.0 0.0 0.0 0.0 0.0 0.0 0.0
0.0 0.0 0.0 0.0 0.0 0.0 0.0 0.0
0.0 0.0 0.0 0.0 0.0 0.0 0.0 0.0
0.0 0.0 0.0 0.0 0.0 0.0 0.0 0.0
0.0 0.0 0.0 0.0 0.0 0.0 0.0 0.0
0.0 0.0 0.0 0.0 0.0 0.0 0.0 0.0
0.0 0.0 0.0 0.0 0.0 0.0 0.0 0.0
0.0 0.0 0.0 0.0 0.0 0.0 0.0 0.0
0.0 0.0 0.0 0.0 0.0 0.0 0.0 0.0
0.0 0.0 0.0 0.0 0.0 0.0 0.0 0.0
0.0 0.0 0.0 0.0 0.0 0.0 0.0 0.0
0.0 0.0 0.0 0.0 0.0 0.0 0.0 0.0
0.0 0.0 0.0 0.0 0.0 0.0 0.0 0.0
00000000: 0000 0000 0000 0000 0000 0000 0000 0000
00000010: 0000 0000 0000 0000 0000 0000 0000 0000
00000020: 0000 0000 0000 0000 0000 0000 0000 0000
00000030: 0000 0000 0000 0000 0000 0000 0000 0000
00000040: 0000 0000 0000 0000 0000 0000 0000 0000
00000050: 0000 0000 0000 0000 0000 0000 0000 0000
00000060: 0000 0000 0000 0000 0000 0000 0000 0000
00000070: 0000 0000 0000 0000 0000 0000 0000 0000
00000080: 0000 0000 0000 0000 0000 0000 0000 0000
00000090: 0000 0000 0000 0000 0000 0000 0000 0000
000000a0: 0000 0000 0000 0000 0000 0000 0000 0000
000000b0: 0000 0000 0000 0000 0000 0000 0000 0000
000000c0: 0000 0000 0000 0000 0000 0000 0000 0000
000000d0: 0000 0000 0000 0000 0000 0000 0000 0000
000000e0: 0000 0000 0000 0000 0000 0000 0000 0000
000000f0: 0000 0000 0000 0000 0000 0000 0000 0000
00000100: 0000 0000 0000 0000 0000 0000 0000 0000
00000110: 0000 0000 0000 0000 0000 0000 0000 0000
00000120: 0000 0000 0000 0000 0000 0000 0000 0000
00000130: 0000 0000 0000 0000 0000 0000 0000 0000
00000140: 0000 0000 0000 0000 0000 0000 0000 0000
00000150: 0000 0000 0000 0000 0000 0000 0000 0000
00000160: 0000 0000 0000 0000 0000 0000 0000 0000
00000170: 0000 0000 0000 0000 0000 0000 0000 0000
00000180: 0000 0000 0000 0000 0000 0000 0000 0000
00000190: 0000 0000 0000 0000 0000 0000 0000 0000
000001a0: 0000 0000 0000 0000 0000 0000 0000 0000
000001b0: 0000 0000 0000 0000 0000 0000 0000 0000
000001c0: 0000 0000 0000 0000 0000 0000 0000 0000
000001d0: 0000 0000 0000 0000 0000 0000 0000 0000
000001e0: 0000 0000 0000 0000 0000 0000 0000 0000
000001f0: 0000 0000 0000 0000 0000 0000 0000 0000
00000200: 0000 0000 0000 0000 0000 0000 0000 0000
00000210: 0000 0000 0000 0000 0000 0000 0000 0000
00000220: 0000 0000 0000 0000 0000 0000 0000 0000
00000230: 0000 0000 0000 0000 0000 0000 0000 0000
00000240: 0000 0000 0000 0000 0000 0000 0000 0000
00000250: 0000 0000 0000 0000 0000 0000 0000 0000
00000260: 0000 0000 0000 0000 0000 0000 0000 0000
00000270: 0000 0000 0000 0000 0000 0000 0000 0000
00000280: 0000 0000 0000 0000 0000 0000 0000 0000
00000290: 0000 0000 0000 0000 0000 0000 0000 0000
000002a0: 0000 0000 0000 0000 0000 0000 0000 0000
000002b0: 0000 0000 0000 0000 0000 0000 0000 0000
000002c0: 0000 0000 0000 0000 0000 0000 0000 0000
000002d0: 0000 0000 0000 0000 0000 0000 0000 0000
000002e0: 0000 0000 0000 0000 0000 0000 0000 0000
000002f0: 0000 0000 0000 0000 0000 0000 0000 0000
00000300: 0000 0000 0000 0000 0000 0000 0000 0000
00000310: 0000 0000 0000 0000 0000 0000 0000 0000
00000320: 0000 0000 0000 0000 0000 0000 0000 0000
00000330: 0000 0000 0000 0000 0000 0000 0000 0000
00000340: 0000 0000 0000 0000 0000 0000 0000 0000
00000350: 0000 0000 0000 0000 0000 0000 0000 0000
00000360: 0000 0000 0000 0000 0000 0000 0000 0000
00000370: 0000 0000 0000 0000 0000 0000 0000 0000
00000380: 0000 0000 0000 0000 0000 0000 0000 0000
00000390: 0000 0000 0000 0000 0000 0000 0000 0000
000003a0: 0000 0000 0000 0000 0000 0000 0000 0000
000003b0: 0000 0000 0000 0000 0000 0000 0000 0000
000003c0: 0000 0000 0000 0000 0000 0000 0000 0000
000003d0: 0000 0000 0000 0000 0000 0000 0000 0000
000003e0: 0000 0000 0000 0000 0000 0000 0000 0000
000003f0: 0000 0000 0000 0000 0000 0000 0000 0000

edge_raw_embed.weight f4 [13273, 2]
0.0 0.0 0.0 0.0 0.0 0.0 0.0 0.0
0.0 0.0 0.0 0.0 0.0 0.0 0.0 0.0
0.0 0.0 0.0 0.0 0.0 0.0 0.0 0.0
0.0 0.0 0.0 0.0 0.0 0.0 0.0 0.0
0.0 0.0 0.0 0.0 0.0 0.0 0.0 0.0
0.0 0.0 0.0 0.0 0.0 0.0 0.0 0.0
0.0 0.0 0.0 0.0 0.0 0.0 0.0 0.0
0.0 0.0 0.0 0.0 0.0 0.0 0.0 0.0
0.0 0.0 0.0 0.0 0.0 0.0 0.0 0.0
0.0 0.0 0.0 0.0 0.0 0.0 0.0 0.0
0.0 0.0 0.0 0.0 0.0 0.0 0.0 0.0
0.0 0.0 0.0 0.0 0.0 0.0 0.0 0.0
0.0 0.0 0.0 0.0 0.0 0.0 0.0 0.0
0.0 0.0 0.0 0.0 0.0 0.0 0.0 0.0
0.0 0.0 0.0 0.0 0.0 0.0 0.0 0.0
0.0 0.0 0.0 0.0 0.0 0.0 0.0 0.0
0.0 0.0 0.0 0.0 0.0 0.0 0.0 0.0
0.0 0.0 0.0 0.0 0.0 0.0 0.0 0.0
0.0 0.0 0.0 0.0 0.0 0.0 0.0 0.0
0.0 0.0 0.0 0.0 0.0 0.0 0.0 0.0
0.0 0.0 0.0 0.0 0.0 0.0 0.0 0.0
0.0 0.0 0.0 0.0 0.0 0.0 0.0 0.0
0.0 0.0 0.0 0.0 0.0 0.0 0.0 0.0
0.0 0.0 0.0 0.0 0.0 0.0 0.0 0.0
0.0 0.0 0.0 0.0 0.0 0.0 0.0 0.0
0.0 0.0 0.0 0.0 0.0 0.0 0.0 0.0
0.0 0.0 0.0 0.0 0.0 0.0 0.0 0.0
0.0 0.0 0.0 0.0 0.0 0.0 0.0 0.0
0.0 0.0 0.0 0.0 0.0 0.0 0.0 0.0
0.0 0.0 0.0 0.0 0.0 0.0 0.0 0.0
0.0 0.0 0.0 0.0 0.0 0.0 0.0 0.0
0.0 0.0 0.0 0.0 0.0 0.0 0.0 0.0
00000000: 0000 0000 0000 0000 0000 0000 0000 0000
00000010: 0000 0000 0000 0000 0000 0000 0000 0000
00000020: 0000 0000 0000 0000 0000 0000 0000 0000
00000030: 0000 0000 0000 0000 0000 0000 0000 0000
00000040: 0000 0000 0000 0000 0000 0000 0000 0000
00000050: 0000 0000 0000 0000 0000 0000 0000 0000
00000060: 0000 0000 0000 0000 0000 0000 0000 0000
00000070: 0000 0000 0000 0000 0000 0000 0000 0000
00000080: 0000 0000 0000 0000 0000 0000 0000 0000
00000090: 0000 0000 0000 0000 0000 0000 0000 0000
000000a0: 0000 0000 0000 0000 0000 0000 0000 0000
000000b0: 0000 0000 0000 0000 0000 0000 0000 0000
000000c0: 0000 0000 0000 0000 0000 0000 0000 0000
000000d0: 0000 0000 0000 0000 0000 0000 0000 0000
000000e0: 0000 0000 0000 0000 0000 0000 0000 0000
000000f0: 0000 0000 0000 0000 0000 0000 0000 0000
00000100: 0000 0000 0000 0000 0000 0000 0000 0000
00000110: 0000 0000 0000 0000 0000 0000 0000 0000
00000120: 0000 0000 0000 0000 0000 0000 0000 0000
00000130: 0000 0000 0000 0000 0000 0000 0000 0000
00000140: 0000 0000 0000 0000 0000 0000 0000 0000
00000150: 0000 0000 0000 0000 0000 0000 0000 0000
00000160: 0000 0000 0000 0000 0000 0000 0000 0000
00000170: 0000 0000 0000 0000 0000 0000 0000 0000
00000180: 0000 0000 0000 0000 0000 0000 0000 0000
00000190: 0000 0000 0000 0000 0000 0000 0000 0000
000001a0: 0000 0000 0000 0000 0000 0000 0000 0000
000001b0: 0000 0000 0000 0000 0000 0000 0000 0000
000001c0: 0000 0000 0000 0000 0000 0000 0000 0000
000001d0: 0000 0000 0000 0000 0000 0000 0000 0000
000001e0: 0000 0000 0000 0000 0000 0000 0000 0000
000001f0: 0000 0000 0000 0000 0000 0000 0000 0000
00000200: 0000 0000 0000 0000 0000 0000 0000 0000
00000210: 0000 0000 0000 0000 0000 0000 0000 0000
00000220: 0000 0000 0000 0000 0000 0000 0000 0000
00000230: 0000 0000 0000 0000 0000 0000 0000 0000
00000240: 0000 0000 0000 0000 0000 0000 0000 0000
00000250: 0000 0000 0000 0000 0000 0000 0000 0000
00000260: 0000 0000 0000 0000 0000 0000 0000 0000
00000270: 0000 0000 0000 0000 0000 0000 0000 0000
00000280: 0000 0000 0000 0000 0000 0000 0000 0000
00000290: 0000 0000 0000 0000 0000 0000 0000 0000
000002a0: 0000 0000 0000 0000 0000 0000 0000 0000
000002b0: 0000 0000 0000 0000 0000 0000 0000 0000
000002c0: 0000 0000 0000 0000 0000 0000 0000 0000
000002d0: 0000 0000 0000 0000 0000 0000 0000 0000
000002e0: 0000 0000 0000 0000 0000 0000 0000 0000
000002f0: 0000 0000 0000 0000 0000 0000 0000 0000
00000300: 0000 0000 0000 0000 0000 0000 0000 0000
00000310: 0000 0000 0000 0000 0000 0000 0000 0000
00000320: 0000 0000 0000 0000 0000 0000 0000 0000
00000330: 0000 0000 0000 0000 0000 0000 0000 0000
00000340: 0000 0000 0000 0000 0000 0000 0000 0000
00000350: 0000 0000 0000 0000 0000 0000 0000 0000
00000360: 0000 0000 0000 0000 0000 0000 0000 0000
00000370: 0000 0000 0000 0000 0000 0000 0000 0000
00000380: 0000 0000 0000 0000 0000 0000 0000 0000
00000390: 0000 0000 0000 0000 0000 0000 0000 0000
000003a0: 0000 0000 0000 0000 0000 0000 0000 0000
000003b0: 0000 0000 0000 0000 0000 0000 0000 0000
000003c0: 0000 0000 0000 0000 0000 0000 0000 0000
000003d0: 0000 0000 0000 0000 0000 0000 0000 0000
000003e0: 0000 0000 0000 0000 0000 0000 0000 0000
000003f0: 0000 0000 0000 0000 0000 0000 0000 0000

node_raw_embed.weight f4 [2649, 2]
1.4088099 0.27633518 -0.79052603 1.031214 1.1935928 -1.0765964 -2.0128906 -1.0401671
-0.15400958 0.9963699 2.4079885 -0.3282177 -0.4234911 1.2759418 0.87411714 -0.209657
0.27871597 2.4356406 2.8733106 0.5475717 0.10487816 -1.1530991 0.4415131 0.32688922
3.1100361 0.30059722 -0.559281 0.19383788 1.7087722 0.40757382 1.0537105 0.8927484
-0.3171851 0.18442437 0.17121944 0.22668791 2.1245549 -0.013284189 -0.63244283 0.91146135
-0.49631333 1.4504879 0.7985809 -0.6084239 0.08682596 -0.42960584 1.4970902 -0.72930336
1.836097 -0.40418485 -1.2239786 0.8405247 -0.91328776 -0.081819355 0.9553039 -1.1257998
1.6512874 -0.12591921 0.12229565 -1.1756043 1.7629186 -0.5974651 -0.4458018 0.4387157
0.030759066 2.5690506 0.6889475 -0.3964113 2.7749333 0.7837964 -0.43944222 0.6939091
1.5924122 3.029179 0.41722816 1.7141604 -0.055308282 -0.27453083 1.5722297 0.43882287
0.22963719 -0.024873102 1.0139511 -0.48378295 -0.99231184 -0.103715 0.60424626 -0.38375115
1.9455655 0.33868143 1.9907525 2.2431371 0.9107257 -0.13060266 1.439906 -1.1373762
0.19405518 -0.23554699 0.0017095208 -1.0815138 -2.1357646 -0.42503703 -0.81069326 -1.3487879
0.6501907 0.045398623 -0.5951836 0.1608735 -1.1264558 1.6729574 0.9031432 -0.52826494
1.3751312 0.57898444 1.4601125 -0.049945377 0.33814296 1.2817854 2.501041 1.3335683
-0.181361 0.048634816 2.1112695 -0.61069393 0.38968286 0.33192754 -0.93886083 1.4542663
0.5370599 0.30744985 1.6676855 0.44951382 0.47506598 0.3405896 -0.10165096 -0.18950856
-0.91368705 1.1076791 -0.552804 0.66467 -1.0704186 -0.12590468 0.4070045 -0.09100815
1.7806439 0.5614505 0.80877274 0.47210836 -0.036159992 1.2012868 0.16047421 0.6191182
1.0556049 0.5595055 0.2840557 -0.44810537 1.8014534 2.462778 1.3564167 0.9140398
0.43044603 0.8331896 -0.9792056 -2.595069 0.4071746 1.2831633 -0.81322193 -0.40510628
-0.23987043 -0.24437004 2.5348916 -0.45229667 3.2887704 1.0469897 0.6463808 2.194572
0.406967 1.8366147 0.3925791 0.20370549 0.2498709 1.077242 1.4486808 -0.09650759
-0.66417146 -0.6810567 -0.36132038 0.35218132 -0.041383505 0.12750092 1.5939381 -0.3455041
-0.10468709 0.363336 0.20514087 0.12221205 0.63314176 1.2124034 0.009734511 0.9284013
0.8361548 -0.157559 1.8878502 2.001698 -0.52725667 -0.070440106 1.0477502 1.4181
-1.3691068 1.0158322 -1.3749346 1.1034006 2.1020777 0.697473 1.2589474 1.7858855
-1.295522 0.71669215 1.186925 0.51905984 0.1738184 2.6400185 -0.0048331083 1.3830525
0.5616206 -0.8142941 1.7307343 2.0058017 2.364541 0.7600812 0.7391805 1.3304783
1.1900735 -0.42144597 -0.5679089 0.8428967 -0.04710982 0.0258668 0.82032347 -0.63942206
0.8167349 0.27185625 -0.8064643 1.8565454 1.1731783 0.12588558 1.4554539 2.243307
-0.32740402 1.8500681 1.2680908 0.91610825 -0.29383808 -0.02342558 -0.27167803 1.1607084
00000000: e253 b43f ce7b 8d3e ea5f 4abf d2fe 833f
00000010: a6c7 983f e9cd 89bf 33d3 00c0 3224 85bf
00000020: b0b4 1dbe 1912 7f3f 7c1c 1a40 260c a8be
00000030: d3d3 d8be 1052 a33f 24c6 5f3f 53b0 56be
00000040: dcb3 8e3e 89e1 1b40 52e4 3740 a92d 0c3f
00000050: 5cca d63d c098 93bf 010e e23e 065e a73e
00000060: d50a 4740 e1e7 993e 0a2d 0fbf 707d 463e
00000070: 0cb9 da3f 84ad d03e fcdf 863f 298b 643f
00000080: 1666 a2be bed9 3c3e 2654 2f3e e020 683e
00000090: b5f8 0740 eda5 59bc c6e7 21bf 8855 693f
000000a0: c81c febe 96a9 b93f cc6f 4c3f abc1 1bbf
000000b0: cfd1 b13d 4cf5 dbbe a7a0 bf3f a0b3 3abf
000000c0: 3a05 eb3f 51f1 cebe 55ab 9cbf a02c 573f
000000d0: 3acd 69bf e890 a7bd cc8e 743f 351a 90bf
000000e0: 635d d33f f7f0 00be 2476 fa3d 347a 96bf
000000f0: 51a7 e13f 79f3 18bf 2240 e4be 589f e03e
00000100: 70fa fb3c 536b 2440 dd5e 303f 6cf6 cabe
00000110: 8298 3140 e2a6 483f 92fe e0be 07a4 313f
00000120: 2ad4 cb3f 12de 4140 ee9e d53e 9c69 db3f
00000130: f08a 62bd 4e8f 8cbe d33e c93f 64ad e03e
00000140: 0326 6b3e adc2 cbbc 26c9 813f 66b2 f7be
00000150: 2608 7ebf 8868 d4bd e2af 1a3f 087b c4be
00000160: 4a08 f93f a767 ad3e fad0 fe3f 8f8f 0f40
00000170: 5225 693f b4bc 05be d74e b83f 8b95 91bf
00000180: 67b6 463e 3b33 71be 0012 e03a 0b6f 8abf
00000190: 5eb0 08c0 749e d9be 9889 4fbf 15a5 acbf
000001a0: e672 263f e8f3 393d f45d 18bf 06bc 243e
000001b0: b42f 90bf 7823 d63f 6534 673f 5f3c 07bf
000001c0: 4d04 b03f 5338 143f f7e4 ba3f 8693 4cbd
000001d0: 1321 ad3e 8b11 a43f 0e11 2040 5eb2 aa3f
000001e0: b3b6 39be 4d35 473d 0a1f 0740 7056 1cbf
000001f0: 8384 c73e 68f2 a93e 2f59 70bf 6625 ba3f
00000200: c27c 093f 116a 9d3e b876 d53f ad26 e63e
00000210: d93b f33e c361 ae3e 612e d0bd 880e 42be
00000220: 65e7 69bf 6ec8 8d3f 9084 0dbf d027 2a3f
00000230: 7a03 89bf 28ed 00be e562 d03e 7b62 babd
00000240: 24ec e33f 38bb 0f3f bb0b 4f3f 30b8 f13e
00000250: 801c 14bd c4c3 993f 5a53 243e 887e 1e3f
00000260: 101e 873f c13b 0f3f c06f 913e 116e e5be
00000270: 0696 e63f 289e 1d40 109f ad3f 83fe 693f
00000280: 6c63 dc3e ea4b 553f 38ad 7abf 9c15 26c0
00000290: 3079 d03e b23e a43f 502f 50bf 176a cfbe
000002a0: 98a0 75be 243c 7abe aa3b 2240 6e93 e7be
000002b0: 377b 5240 c203 863f 3679 253f de73 0c40
000002c0: fb5d d03e 3116 eb3f 2100 c93e 2c98 503e
000002d0: 28de 7f3e 11e3 893f 5f6e b93f c5a5 c5bd
000002e0: 2407 2abf bb59 2ebf fcfe b8be 1c51 b43e
000002f0: c081 29bd 9a8f 023e 2a06 cc3f eae5 b0be
00000300: 2f66 d6bd 2d07 ba3e 7310 523e 504a fa3d
00000310: 9415 223f 0930 9b3f 807d 1f3c b5ab 6d3f
00000320: 3e0e 563f 2657 21be 13a5 f13f d21b 0040
00000330: 4bfa 06bf e742 90bd ae1c 863f 4d84 b53f
00000340: e43e afbf ca06 823f dbfd afbf 3b3c 8d3f
00000350: 7188 0640 978d 323f 3025 a13f e597 e43f
00000360: aad3 a5bf 2379 373f 29ed 973f 1be1 043f
00000370: 73fd 313e 10f6 2840 0d5f 9ebb dd07 b13f
00000380: 5ec6 0f3f 9475 50bf b488 dd3f 0e5f 0040
00000390: a454 1740 ae94 423f ef3a 3d3f 1d4d aa3f
000003a0: 5454 983f c4c7 d7be 7a62 11bf 14c8 573f
000003b0: 3af6 40bd 9de6 d33c b800 523f 2ab1 23bf
000003c0: 8a15 513f be30 8b3e 7274 4ebf 48a3 ed3f
000003d0: b52a 963f 26e8 003e 504c ba3f 5892 0f40
000003e0: 80a1 a7be 08cf ec3f cd50 a23f 1286 6a3f
000003f0: f271 96be 00e7 bfbc 6219 8bbe 1892 943f

merge_layer.fc1.weight f4 [2, 4]
2.467405e-07 -1.0970923 0.4797267 -0.12244022 0.32701987 -1.4669098 -0.30814692 -0.72705483
00000000: c277 8434 856d 8cbf bd9e f53e f0c1 fabd
00000010: 266f a73e b3c3 bbbf 6fc5 9dbe 4420 3abf

merge_layer.fc1.bias f4 [2]
0.02706778 0.1538319
00000000: 40bd dd3c 1c86 1d3e

merge_layer.fc2.weight f4 [2, 2]
-0.43042898 -0.55765724 0.24586026 -0.1995165
00000000: 3061 dcbe a0c2 0ebf cbc2 7b3e 0e4e 4cbe

merge_layer.fc2.bias f4 [2]
0.11843574 0.59258133
00000000: 708e f23d 69b3 173f

attn_model_list.0.merger.fc1.weight f4 [2, 8]
0.18490942 0.01189907 -0.16290252 0.5633334 -0.3047148 -0.30110553 0.57370806 -0.089174576
0.5075356 0.046488848 0.1886621 -0.32134035 -0.061519276 -0.02752585 -0.3128151 0.3592383
00000000: e558 3d3e 51f4 423c ebcf 26be 9e36 103f
00000010: 9403 9cbe 812a 9abe 88de 123f 29a1 b6bd
00000020: daed 013f 176b 3e3d a330 413e b986 a4be
00000030: a3fb 7bbd e47d e1bc 4d29 a0be 15ee b73e

attn_model_list.0.merger.fc1.bias f4 [2]
0.1150828 -0.043507703
00000000: 88b0 eb3d 2235 32bd

attn_model_list.0.merger.fc2.weight f4 [2, 2]
-0.41716486 -0.67458147 0.32100862 -0.22382256
00000000: a296 d5be 5fb1 2cbf 3e5b a43e be31 65be

attn_model_list.0.merger.fc2.bias f4 [2]
-0.18163374 -0.3134595
00000000: 32fe 39be c37d a0be

attn_model_list.0.multi_head_target.w_qs.weight f4 [6, 6]
-0.20353259 -0.34503773 0.6713195 -0.08910466 -0.53436023 0.066293955 0.42071337 -0.22544074
0.25173157 -0.01013432 0.05645927 0.32917038 0.72577 -0.5369066 0.03893844 -0.37999156
-0.25569022 0.22245644 -0.66729593 0.3668155 -0.52039516 0.5621232 -0.64158756 0.22767583
-0.4317851 -0.52375996 -0.087683804 0.37603918 -0.41730908 0.2343176 0.06579441 0.596879
0.78089553 0.49359816 0.36908323 -0.36998752
00000000: d96a 50be c9a8 b0be 98db 2b3f 817c b6bd
00000010: d5cb 08bf 20c5 873d be67 d73e f0d9 66be
00000020: f6e2 803e 6b0a 26bc d641 673d 0589 a83e
00000030: 10cc 393f b672 09bf ea7d 1f3d 418e c2be
00000040: d4e9 82be 9fcb 633e e8d3 2abf 3ecf bb3e
00000050: 9e38 05bf 4ee7 0f3f 153f 24bf da23 693e
00000060: f012 ddbe 2215 06bf 9193 b3bd 3588 c03e
00000070: 89a9 d5be f4f0 6f3e 38bf 863d 10cd 183f
00000080: c5e8 473f e6b8 fc3e 7af8 bc3e 016f bdbe

attn_model_list.0.multi_head_target.w_ks.weight f4 [6, 6]
0.3760066 0.4857398 0.55771595 0.23999287 0.064143375 0.43947595 -0.3304048 -0.33616424
0.4573647 -0.15559447 0.99688995 0.0053946017 -0.1454892 0.4888651 0.10309171 -0.588403
-0.3319571 0.11993305 0.11440962 0.018044382 0.33720526 0.2292622 -0.105958566 -0.48432136
0.37056455 0.024254667 -0.3051529 -0.3206483 -0.26078424 0.16718711 -0.19844855 0.57221156
0.65780926 0.0881581 0.08897996 0.54325336
00000000: f083 c03e e3b2 f83e 79c6 0e3f b1c0 753e
00000010: 9a5d 833d fe02 e13e d12a a9be b81d acbe
00000020: b52b ea3e 2854 1fbe 2e34 7f3f 33c5 b03b
00000030: 1ffb 14be 874c fa3e bf21 d33d 94a1 16bf
00000040: 48f6 a9be 759f f53d 974f ea3d d0d1 933c
00000050: 2ba6 ac3e b6c3 6a3e ce00 d9bd f8f8 f7be
00000060: a3ba bd3e b9b1 c63c 003d 9cbe 042c a4be
00000070: 8385 85be 1933 2b3e 1936 4bbe 757c 123f
00000080: 3066 283f 3c8c b43d 203b b63d a712 0b3f

attn_model_list.0.multi_head_target.w_vs.weight f4 [6, 6]
-0.37813696 0.39715138 -0.13650884 -0.05346183 0.037254456 -0.5471207 0.123260796 -0.006110606
0.8995711 0.15720747 -0.54065114 -0.4958767 0.18763632 0.3845343 -0.0825145 0.15456976
-1.1952648 0.33511326 0.8786819 0.037207987 0.11681057 -0.18676697 0.11595297 0.17586255
-0.21627712 0.4824065 0.10127321 -0.5496791 -0.08044161 -0.51979166 0.2779008 -0.32636634
0.1207942 0.273814 0.1793037 0.03901435
00000000: 2b9b c1be 6d57 cb3e f9c8 0bbe cbfa 5abd
00000010: 2198 183d 1a10 0cbf 2870 fc3d 7a3b c8bb
00000020: 4b4a 663f fffa 203e 1d68 0abf 8de3 fdbe
00000030: bc23 403e aee1 c43e 5dfd a8bd 8947 1e3e
00000040: 70fe 98bf f793 ab3e 4cf1 603f 6767 183d
00000050: 613a ef3d d73f 3fbe c078 ed3d 5015 343e
00000060: c077 5dbe fcfd f63e 5468 cf3d c5b7 0cbf
00000070: 92be a4bd 1111 05bf 0349 8e3e 7d19 a7be
00000080: f362 f73d 5931 8c3e 649b 373e 83cd 1f3d

attn_model_list.0.multi_head_target.layer_norm.weight f4 [6]
0.9913418 0.99533945 1.0101943 0.9952313 1.0031155 0.9964113
00000000: 94c8 7d3f 91ce 7e3f 0c4e 813f 7ac7 7e3f
00000010: 1766 803f d014 7f3f

attn_model_list.0.multi_head_target.layer_norm.bias f4 [6]
-0.009419769 -0.009221189 -0.0095859375 0.0060086045 0.009033442 0.008804404
00000000: 6055 1abc 7814 17bc 560e 1dbc d4e3 c43b
00000010: 0001 143c 5940 103c

attn_model_list.0.multi_head_target.fc.weight f4 [6, 6]
0.0954418 -0.08500439 0.4262958 -0.4128103 -0.085567184 -0.40045476 0.13806172 -0.18211949
-0.88677907 0.14257301 0.27085766 -0.6081477 0.44990098 0.1651131 0.08004107 0.5019286
-0.20343874 0.12702025 -0.21354781 0.6142506 0.17069 0.5262146 0.6914745 -0.30347148
0.1745282 0.4191791 0.20812216 0.50933635 0.2618096 0.4339182 -0.18220933 0.39695358
-0.15199514 0.3981005 -0.235727 -0.39372188
00000000: fe76 c33d c816 aebd 7143 da3e df5b d3be
00000010: d93d afbd 6808 cdbe 0d60 0d3e 887d 3abe
00000020: f403 63bf a9fe 113e dbad 8a3e 91af 1bbf
00000030: 6c59 e63e 6913 293e 93ec a33d 657e 003f
00000040: 3f52 50be 9911 023e 47ac 5abe 873f 1d3f
00000050: 5cc9 2e3e 00b6 063f 7904 313f 9d60 9bbe
00000060: 85b7 323e a59e d63e fa1d 553e de63 023f
00000070: e80b 863e 872a de3e 1595 3abe 803d cb3e
00000080: 9da4 1bbe d4d3 cb3e 6b62 71be ea95 c9be

attn_model_list.0.multi_head_target.fc.bias f4 [6]
0.16562644 0.29989702 0.29516765 0.3272468 0.289658 0.12455612
00000000: fa99 293e 1a8c 993e 3720 973e e48c a73e
00000010: 0e4e 943e 4717 ff3d

attn_model_list.1.merger.fc1.weight f4 [2, 8]
0.51957357 0.13466187 0.6372327 0.70724833 0.12635727 -0.7601936 -0.44454685 0.25747427
-0.32012546 -0.5318417 -0.15717007 0.8995339 -0.1522971 -0.43223065 0.4020624 -0.057337027
00000000: c602 053f cde4 093e af21 233f 3a0e 353f
00000010: cd63 013e 0c9c 42bf a59b e3be abd3 833e
00000020: 7ce7 a3be c726 08bf 31f1 20be db47 663f
00000030: c5f3 1bbe 564d ddbe 1fdb cd3e 3bda 6abd

attn_model_list.1.merger.fc1.bias f4 [2]
0.05925539 -0.15536124
00000000: c8b5 723d 0417 1fbe

attn_model_list.1.merger.fc2.weight f4 [2, 2]
1.0234144 -0.8149225 0.092164986 1.6860222
00000000: 3eff 823f c39e 50bf ffc0 bc3d 93cf d73f

attn_model_list.1.merger.fc2.bias f4 [2]
-0.019234033 -0.65664893
00000000: b190 9dbc 251a 28bf

attn_model_list.1.multi_head_target.w_qs.weight f4 [6, 6]
-0.19210787 -0.10137424 -0.24672996 0.22453369 -0.057418652 -0.22108442 1.020747 -0.17590293
0.29696736 -0.21863566 -0.098001264 -0.18656076 -0.36886278 0.7926743 0.2759233 -0.18191288
-0.63577735 -0.06183053 0.036426686 -0.14079212 -0.37076744 -1.3240952 -0.5241794 -0.9249624
0.40098825 0.07384972 0.209867 -0.6069321 -0.22619814 -0.18345992 0.21318996 0.8369625
-0.16888894 0.35087878 -0.43307665 0.008398396
00000000: edb7 44be 4c9d cfbd c7a6 7cbe 29ec 653e
00000010: d22f 6bbd f463 62be d6a7 823f e61f 34be
00000020: 1b0c 983e 07e2 5fbe e3b4 c8bd c909 3fbe
00000030: 95db bcbe b4ec 4a3f d245 8d3e 5f47 3abe
00000040: 4ec2 22bf 0342 7dbd 2634 153d cf2b 10be
00000050: 3bd5 bdbe f47b a9bf 9f30 06bf 56ca 6cbf
00000060: 554e cd3e 863e 973d 60e7 563e e75f 1bbf
00000070: 7ca0 67be ebdc 3bbe 784e 5a3e 2d43 563f
00000080: 39f1 2cbe 62a6 b33e 39bc ddbe 6d99 093c

attn_model_list.1.multi_head_target.w_ks.weight f4 [6, 6]
0.38252214 0.04677997 -0.31189787 0.58782744 0.35972357 -0.057112888 -0.34373125 -0.028643774
-0.20639668 0.61986303 0.3713032 -0.09832194 0.37997156 0.63016194 0.091205895 1.078771
0.8467611 1.0188365 -0.0036953515 -0.3538601 0.08163716 0.37031665 0.5141098 -0.21514007
-0.90258276 -0.0929439 -0.88769764 0.15407632 -0.15921614 -0.69708973 -0.3425976 -0.11943434
-0.5224885 0.30058295 0.022840383 0.25337496
00000000: f1d9 c33e 5b9c 3f3d 14b1 9fbe dc7b 163f
00000010: b02d b83e 34ef 69bd 8bfd afbe 59a6 eabc
00000020: a759 53be 58af 1e3f 741b be3e 035d c9bd
00000030: a28b c23e 4b52 213f 28ca ba3d 2b15 8a3f
00000040: 56c5 583f 3c69 823f b62d 72bb 272d b5be
00000050: 6231 a73d 259a bd3e b39c 033f ae4d 5cbe
00000060: aa0f 67bf 5f59 bebd 2740 63bf 2fc6 1d3e
00000070: 8e09 23be 7974 32bf f468 afbe fe99 f4bd
00000080: cec1 05bf 02e6 993e c11b bb3c 5dba 813e

attn_model_list.1.multi_head_target.w_vs.weight f4 [6, 6]
0.6196599 0.06454904 0.39242616 -0.33314052 0.015413852 -0.2342008 0.042264223 -0.26594514
-0.17805685 0.042934485 -0.0019502995 0.061657798 0.88420254 0.60744476 0.21661445 -0.6893443
0.38706425 -0.062272735 -0.502976 0.312118 0.8356547 0.2681265 -0.13141431 0.57930464
-0.0006918325 -0.5668066 0.14926712 -1.0204891 -0.7908668 0.13527043 0.026318029 -0.19577727
0.4665004 0.4903713 0.35417622 0.5540973
00000000: 08a2 1e3f 4932 843d 15ec c83e 6591 aabe
00000010: 628a 7c3c 56d2 6fbe 401d 2d3d f629 88be
00000020: 8954 36be 12dc 2f3d 31a1 ffba e38c 7c3d
00000030: 195b 623f 8081 1b3f 2ed0 5d3e de78 30bf
00000040: 492d c63e b211 7fbd 09c3 00bf eecd 9f3e
00000050: 77ed 553f e047 893e 7991 06be 4f4d 143f
00000060: 185c 35ba 3d1a 11bf 7bd9 183e 639f 82bf
00000070: 3f76 4abf 5584 0a3e e898 d73c d679 48be
00000080: 24d9 ee3e f211 fb3e 9656 b53e 52d9 0d3f

attn_model_list.1.multi_head_target.layer_norm.weight f4 [6]
0.9912868 0.99281996 0.9923535 0.99041826 1.0085015 1.0044562
00000000: f9c4 7d3f 7329 7e3f e10a 7e3f 0d8c 7d3f
00000010: 9416 813f 0592 803f

attn_model_list.1.multi_head_target.layer_norm.bias f4 [6]
0.00846972 0.00860894 0.00816987 -0.008643918 0.008726239 0.008647218
00000000: 95c4 0a3c 830c 0d3c ebda 053c 389f 0dbc
00000010: 80f8 0e3c 10ad 0d3c

attn_model_list.1.multi_head_target.fc.weight f4 [6, 6]
-0.17340262 0.681388 -0.14815632 0.35918945 -0.038951878 -0.42751515 0.06727916 0.03751245
-0.21500532 0.50185555 -0.6031571 -0.25234625 0.09398919 -0.82456374 -0.29526317 -0.3306087
-0.76410097 -0.30998233 -0.07416464 -0.33536744 -0.5635153 0.59963226 -0.34035608 0.10561525
-0.36336663 0.574614 -0.25772843 -0.2452666 -0.08503643 -0.01314272 0.24843387 -0.26502213
0.40670797 0.31405395 -0.4481975 -0.28249055
00000000: 7590 31be 726f 2e3f 4ab6 17be aee7 b73e
00000010: 018c 1fbd 44e3 dabe a8c9 893d a8a6 193d
00000020: 5b2a 5cbe 9b79 003f 8168 1abf 8733 81be
00000030: 687d c03d 9c16 53bf bc2c 97be 8b45 a9be
00000040: 1f9c 43bf 01b6 9ebe a1e3 97bd 48b5 abbe
00000050: 8a42 10bf 8081 193f 2743 aebe cf4c d83d
00000060: 310b babe e719 133f fbf4 83be 2b27 7bbe
00000070: 9427 aebd 9054 57bc 7365 7e3e fbb0 87be
00000080: 073c d03e aecb a03e 257a e5be 9aa2 90be

attn_model_list.1.multi_head_target.fc.bias f4 [6]
0.048134893 0.26276216 0.32185358 -0.37607133 -0.013192235 0.15810847
00000000: 1829 453d c388 863e fec9 a43e 6c8c c0be
00000010: 3e24 58bc 30e7 213e

time_encoder.basis_freq f4 [2]
1.0005047 0.0010483552
00000000: 8a10 803f f768 893a

time_encoder.phase f4 [2]
0.0004117323 0.0030157478
00000000: c6dd d739 daa3 453b

affinity_score.fc1.weight f4 [2, 4]
-0.4733456 0.44895896 -0.28325173 -0.24958342 -0.2780287 0.733594 -0.5495823 0.65273833
00000000: 5b5a f2be f3dd e53e 5f06 91be cc92 7fbe
00000010: c759 8ebe d1cc 3b3f 6db1 0cbf dc19 273f

affinity_score.fc1.bias f4 [2]
-0.17699839 0.3025584
00000000: 113f 35be efe8 9a3e

affinity_score.fc2.weight f4 [1, 2]
0.1364193 -0.51966476
00000000: 80b1 0b3e c008 05bf
